Project 1 : Navigation/checkpoint.pth (torch_old, 54505 bytes, 6 tensors)

fc1.weight f4 [128, 37]
00000000: bd02 233d c546 5d3d 3af2 b9bd 0815 cabd
00000010: 8bd1 b6bc 569c 143e 581d 9dbd 03aa 293e
00000020: 3aaf a6bd aeaf aa3c 9ef8 5abd 71b3 ad3c
00000030: 71e0 ebbd 29b0 27be bf78 5dbc 14e0 843d
00000040: 1f45 d73c cbd5 d93d 614d 66bd cf9a 1dbd
00000050: f709 323d 37a3 493e ea92 acbc 5f16 fd3d
00000060: cea9 363d e1ea 903d 19fd 053e 4160 0bbe
00000070: 1757 f4bd e86b 1fbd 48a2 1cbd ba05 1f3e
00000080: e7fb cbbd 696b 4fbd bc85 bfbd fe9f fdbd
00000090: ebd7 cfbd 0d50 1d3e f1da 483d 2401 853d
000000a0: bd6c 043c ff4a e7bd 9911 09bd 1179 dbbd
000000b0: ae64 a2bd feed b2bd 48c2 0d3e 8b5c 893d
000000c0: 781c 28bd c9e1 383c 0f99 813d a028 093e
000000d0: b244 c13d 2918 983b 5c80 a23d e4ce f9bd
000000e0: 8362 d3bd 2d28 08be 03de 11be 76b8 bebd
000000f0: 413e 023e 5f60 e63b b172 b2bd f4f9 903d
00000100: c274 7f3d 8d7f 0abd fea1 cdbd 8613 89bd
00000110: b6b9 ea3d 4e93 4f3e 3405 5abc 1669 95bd
00000120: e9d2 02bb 9ea1 073e 7849 983d 1f1e 463e
00000130: 59b8 723d 0b2e 9fbd 28a8 ccbc fe71 9abe
00000140: 91e0 3e3c 5354 3d3e 1fe1 573d e0b6 75be
00000150: 9345 76bb dd58 be3b 8348 aabc adc0 c1bc
00000160: 3cb3 f73d 2679 fabd ae2e af3d ad4b e63d
00000170: af04 f53d 0cc0 f4bb 138c 45be b8e7 593c
00000180: 5496 3a3d 53a0 693d 251c e6bd 3af7 24be
00000190: a7c4 513e c7fa 273e fa7d f8bd 07e1 fcbd
000001a0: 91c8 50be ad2c 463d 6f3b b1bd 65bc 15be
000001b0: a4c7 acbd f52d 773c 6a03 2abc f061 5d3e
000001c0: c20a edbd 97b3 cb3d f094 da3d 4419 90be
000001d0: 34d5 35bd b632 5f3d d1f8 a63d e945 9e3c
000001e0: b0ca c03d 6fb3 f23c 37df c6bc ec05 803d
000001f0: 139e 01be 3e4f f1bd dce4 073c b313 ddbb
00000200: ca62 b3bd a6af 18be b11f 0abe d21b 033e
00000210: 9a6d d4bd de4f 14bd e35d ce3d 9b65 ffbd
00000220: d0e4 123b 4af8 b53d bc55 183d ce7f bc3d
00000230: 2c82 f73d 1f63 b63d b397 493e b65f 123d
00000240: 5b2e a8bd f673 02be cb80 a23c 5258 45bc
00000250: 5174 99bd 950a 38be 7b93 19be d795 36be
00000260: d5f9 64bc 6c2a 9b3d 3236 25bc 6c25 21be
00000270: adad 023e 1d11 073e e35c 98bc f92b cdbd
00000280: 1537 14bd bea5 8bbd 1367 00be 4e02 fcbd
00000290: 9581 e9bd 13e6 97bc 6c61 90bd a90b 993c
000002a0: b676 09be a45b bebd 4e99 ff3d e0b8 9ebc
000002b0: ac0a cb3d d85c 9c3d 1051 56be 383d 9f3d
000002c0: b949 8fbc 690a 033d 8dfe 053e 124d 2abe
000002d0: d33a ab3b 9520 4fbd b9e2 8c3e f1ca 7f3d
000002e0: ed66 8e3d 876b 173d 0f83 3fbd e7a1 de3b
000002f0: 117c edbd f606 ff3d cfd5 273e a1a4 073e
00000300: 0e7b bcbd eece 9abd 713a 98be 61d7 87bd
00000310: 6efd 88bd 361c 223d 47ea e4bd 84d1 383c
00000320: 2433 383d 76f1 b63d ee0b dfbd ae96 0bbe
00000330: f4db 22bd cd55 2d3e 2a5d 0abd aca9 c23d
00000340: 711e 323d a4af 4fbb 2b82 2b3d 8cb2 87bd
00000350: cc88 9c3b bcdc f1bb d593 f6bd 1dad b33d
00000360: f4e7 febd 2dc7 f0bd 9083 993d 2341 84be
00000370: bf9a 8ebc 4928 1b3e ff02 103d eb33 c7bc
00000380: 7976 8abd 7dbf 1b3e 8ab9 0cbe 6aa5 02bd
00000390: 5384 c3bd a7ab 733c 6d92 993d e306 c23d
000003a0: a4ac cd3c e482 313e 8f61 bc3d 2904 3cbd
000003b0: 8ef8 863d a171 06be 4fc0 53bd b39d 803d
000003c0: 8ad6 f23d 5e4d 273e 1e56 2bbd 5ca4 9e3c
000003d0: aa9d e13d 7625 10be c55f 323d 8b18 12be
000003e0: 3a7f bebc 4361 c339 ca61 e83c bd1a 173c
000003f0: 321d 883e 08f0 1dbe 4a7f 26be f087 c9bd
0.039797533 0.05402257 -0.09079404 -0.09867293 -0.022316715 0.14512762 -0.076716125 0.1656876
-0.081388906 0.020835724 -0.053459756 0.021203728 -0.11517418 -0.16375794 -0.013517558 0.06488052
0.026278077 0.10636481 -0.056226138 -0.038477715 0.043466534 0.19691168 -0.021066148 0.123577826
0.044595532 0.070760496 0.1308483 -0.13610937 -0.119306736 -0.038921267 -0.0382407 0.15529528
-0.09960156 -0.050639544 -0.0935168 -0.12384032 -0.10148605 0.15362568 0.049036924 0.06494358
0.008082566 -0.11293601 -0.033464048 -0.10716451 -0.079293594 -0.087368 0.13843644 0.06707104
-0.041042775 0.0112843 0.06328022 0.13394403 0.09436931 0.004641552 0.07934639 -0.121976644
-0.10321524 -0.13296576 -0.14244847 -0.09312527 0.1271906 0.0070305313 -0.08713282 0.07078925
0.06236721 -0.03381305 -0.10040663 -0.06693177 0.11461203 0.20271036 -0.013306905 -0.07295434
-0.0019962138 0.13245246 0.07435888 0.19347428 0.05925784 -0.07772454 -0.024982527 -0.30165094
0.0116502205 0.18489198 0.052704927 -0.23995543 -0.003757809 0.005808933 -0.02078653 -0.023651445
0.12094733 -0.122301385 0.08553825 0.11244903 0.11963784 -0.007469183 -0.19291715 0.013299875
0.04555352 0.057037663 -0.11235837 -0.16109934 0.20485173 0.16404258 -0.12133403 -0.12347608
-0.2038901 0.04838245 -0.08653914 -0.14622648 -0.08436516 0.015086641 -0.010376791 0.21619391
-0.115743175 0.099463634 0.10672939 -0.28144276 -0.04439278 0.05449172 0.08152927 0.019320445
0.094136596 0.029626576 -0.024276359 0.062511295 -0.12657957 -0.117826924 0.00829431 -0.006746733
-0.08759077 -0.14910755 -0.13488652 0.12803581 -0.10372467 -0.03620898 0.10076501 -0.124705516
0.0022414215 0.08885248 0.037191138 0.09204064 0.12085375 0.089056246 0.19686775 0.03573581
-0.082119666 -0.12739548 0.019836804 -0.012044983 -0.07492889 -0.17972787 -0.14997666 -0.17830597
-0.01397558 0.07576451 -0.010083722 -0.15736932 0.12761565 0.13190122 -0.01859898 -0.10018153
-0.036185343 -0.06818722 -0.1253932 -0.12305127 -0.11401669 -0.018542325 -0.07049832 0.018682318
-0.13424191 -0.09294823 0.124804124 -0.019375265 0.09914145 0.07634896 -0.2092936 0.077753484
-0.017491208 0.03199235 0.13085385 -0.16630962 0.0052255183 -0.050568182 0.27516726 0.0624494
0.06953225 0.03696778 -0.046755847 0.0067942026 -0.115959294 0.124524996 0.16390155 0.13246395
-0.09203158 -0.07559 -0.29732087 -0.06632877 -0.06688963 0.039577685 -0.11177497 0.011280421
0.044970647 0.08932774 -0.10890947 -0.13631698 -0.039760545 0.16927262 -0.033780254 0.095050186
0.043486062 -0.0031690383 0.041872185 -0.06625852 0.0047770496 -0.00738105 -0.120399155 0.08773253
-0.12446585 -0.1175674 0.07495797 -0.25830945 -0.017407773 0.15152086 0.035159107 -0.024316749
-0.06760878 0.15209766 -0.13742653 -0.031896032 -0.09546723 0.014872468 0.074986316 0.0947397
0.025106736 0.17335087 0.09198295 -0.045902405 0.06590377 -0.13129283 -0.05169707 0.06280079
0.11857326 0.16338107 -0.041830175 0.019365482 0.110164 -0.1407679 0.043548364 -0.14267175
-0.023254026 0.00037265764 0.028366942 0.0092226835 0.26584774 -0.15423596 -0.16259494 -0.09840381

fc1.bias f4 [128]
00000000: 125c a73c 2c82 433d 4f12 3abd e287 74bc
00000010: d584 29bd 770c 84bd e813 033e 8186 003e
00000020: f596 38be 3e46 003e 60a3 6bbd 9638 8bbd
00000030: fdb2 15bd 29c4 a6bb 4c27 2abd a9eb 6b3d
00000040: a66e 183e 1fde 6abd a2bb 08bb 8dee 573d
00000050: b9ec 7ebc e5f4 c33d b3ef 4d3e 6591 473c
00000060: 580e b83d 59ae 293e 41da 523e 11c8 d2bd
00000070: 6ec5 64bc aed1 a5bd 6ea4 183e c66c 053e
00000080: 9809 95bd b539 a13d 529a e33d 449c 1ebe
00000090: 73a2 043e f8e3 ef3d 3f4e 233d 1d86 863d
000000a0: a26b a13d 1765 313e ed20 2c3e c2c4 9e3d
000000b0: 1e25 e83c 7876 3ebd 0f24 fa3d d22a 76bd
000000c0: e574 14be 65cc 0e3e cf39 da3c 63f9 723d
000000d0: fc89 d53d 6211 ae3d d9de 073e 30fe 0b3e
000000e0: 449f c9bd 152a 0abd 44b4 a63c 636d f4bc
000000f0: bf19 10be abfa b73d 2cba 113e 580b c8bc
00000100: 3096 203e de9e 743d 9aea de3d b132 c1ba
00000110: 9c82 14be 6e90 d5bb be45 463d 9ef5 cabc
00000120: c890 033e f7ec ecbd 4680 71bd 5d97 fcbc
00000130: 9065 6b3e 7f7f ebbd 3234 023e c4de b23d
00000140: c5d2 9b3c 59a7 143e 3381 113e 3549 febc
00000150: 1d84 4a3d 97b6 183e cc40 0e3e f876 c3bd
00000160: 777f 2b3d ef24 2c3e 6b67 d83d 81ba 693d
00000170: 32e1 66bd e98b 1abe c2a7 8d3b 5d24 e73d
00000180: 9af5 c63b 95e9 2fbe 1994 213c dcc3 503e
00000190: 4cb1 c6bd c6d8 33be 6179 173e 8ad3 1e3e
000001a0: 3410 0ebe 3a56 03be 7204 3d3d 8f0c 253e
000001b0: 84e0 05be 9b91 203d 5096 0c3e 6d21 b2bc
000001c0: 8640 35bd fbbf c8bd 6363 973d 95fa 373e
000001d0: 42ba be3d 8f34 2e3e 3764 1f3d 0c67 55bd
000001e0: d32b 023d 56f6 ed3d 2626 ac3c e429 23be
000001f0: 02a4 17ba 5324 da3d 1c4f 2d3e 556f 1c3b
0.020429645 0.047731563 -0.045427617 -0.014924975 -0.041386444 -0.0644769 0.12800562 0.12551309
-0.18026336 0.12526795 -0.057528853 -0.06797902 -0.03654765 -0.005089302 -0.041541383 0.05759779
0.14885959 -0.057340737 -0.002086379 0.052717734 -0.015559369 0.09568194 0.20110969 0.012180661
0.08987111 0.16570415 0.2059107 -0.10292066 -0.0139630865 -0.08096634 0.14906475 0.13029775
-0.072772205 0.07872335 0.11113419 -0.15489298 0.12952594 0.117134035 0.039869543 0.06568549
0.078818575 0.17323719 0.16809435 0.07752372 0.028338011 -0.0464997 0.12213909 -0.06009943
-0.14497717 0.13945158 0.026638893 0.059319865 0.10426709 0.08499409 0.13268603 0.13671184
-0.09844831 -0.03373154 0.02034963 -0.029837316 -0.14072321 0.08983358 0.14231175 -0.024419472
0.15682292 0.05972182 0.108845904 -0.0014739839 -0.14502949 -0.0065174615 0.048406355 -0.024775323
0.12848198 -0.11568635 -0.05896022 -0.030833894 0.22987962 -0.11498927 0.12715223 0.087338954
0.019021401 0.14516963 0.14209442 -0.031040767 0.0494424 0.14913402 0.13891906 -0.09544176
0.041869607 0.16810964 0.105666004 0.05706263 -0.056367107 -0.15092434 0.004322977 0.112862326
0.0060717585 -0.17178948 0.009861969 0.20387214 -0.097017854 -0.17563161 0.14792396 0.15510383
-0.13873369 -0.12825862 0.046146818 0.16118072 -0.13073927 0.03920136 0.13729215 -0.021744454
-0.044250987 -0.09802242 0.073920034 0.17966683 0.093128696 0.17012237 0.03891393 -0.052100226
0.031780075 0.116192505 0.021014284 -0.15933949 -0.0005784632 0.106514595 0.16924709 0.002387007

fc2.weight f4 [64, 128]
00000000: 5824 90bd fdf5 0dbd b361 efbd e3d3 1d3e
00000010: 5230 923d 68b6 f6bc cca6 dc3d 11f3 8b3d
00000020: aceb 213d 20a0 923d d94c a53d 7456 2dbd
00000030: 0521 853d 3a50 56bd b43f 73bd 53cf 8d3a
00000040: 7902 133c f19b 10be 74ce 97bd 8b95 abbd
00000050: 4af4 bf3d bc9e 543d 1524 3dbd 5051 283c
00000060: 5835 4cbd 4039 673d c5fc f3bc 4d0c 01be
00000070: 08a9 27be da51 363c d1da a13d 7812 893c
00000080: 74f0 113e 8f72 2fbc 1345 6f3b 3657 d6bc
00000090: 85df 953d c53c d33c ad55 1c3e 2832 71bd
000000a0: 0fbc 98bd 2865 8fbd 01d4 94bd 1749 323e
000000b0: 6cab 953c 6fce dcbb d0e8 693c e267 a7bd
000000c0: f87b 94bd 4699 18be 4075 78bd 4f91 17be
000000d0: 6681 85bd 03e8 8cbc 8721 bc3c 7e75 c83d
000000e0: 9972 2d3c 307a cfbd 9014 7d3b aeb7 68bc
000000f0: f249 0a3e f003 e7bc 1495 843d d551 9cbd
00000100: 66b0 bcbd b355 f83d f6f5 093d de7a a2bd
00000110: 670a adbc e3f9 1f3c c576 623d 8bfd 4f3c
00000120: adc0 583d 32c7 1abd db28 b73b ade9 423e
00000130: 886b e23c 318f 4ebd b57d 063e 42f8 763d
00000140: 067e b53c aa2e 113e 84bc f73d 0f9d f4bd
00000150: b8e8 38bd 156a 74bd 915a 183c e3ab d93d
00000160: 17c0 613c 2d28 a63d 616e 8e3d 3c94 edbc
00000170: ffc6 59bd c28c 8abd 037e c63d 7ba3 8cbe
00000180: a0d4 8cbd 1ebf 023d 0c37 41bd e724 06bd
00000190: 811c 383e bdea aabc ed80 c9bb dc5f 10bc
000001a0: ddc2 34bd 061d bf3c 2e66 3c3d 1482 89bb
000001b0: 8890 c13d b129 70bd 9c17 fb3d 2349 e9bc
000001c0: b3d4 99bc 9349 1b3e 8cc7 92bb fe72 523d
000001d0: 6e9d 113d d98a 36ba ca52 45be 74c2 4c3d
000001e0: f8e3 843d 035d 76bd 5f32 5c3a 152e 86bc
000001f0: 2d78 2db9 dfb5 c3bd 1497 193d cf59 703c
00000200: 09ad 6d3d 97d7 723b 06a5 19bc ae65 f9bb
00000210: 1120 8bbd 1d48 eebc 3833 92bd 4846 d2bd
00000220: eea4 aa3d cb78 94bd 2d00 52bd 1d65 c63c
00000230: 389f 95bd 5d08 13bb 9e4f 5ebd de6a 9bbd
00000240: 20d4 f43a 789c e33d 703e ddbb 69e4 a53d
00000250: b979 4abc 98a4 32bd 5c94 923d 2b1d 8fbc
00000260: da6a 97bd 56b2 02bc 2d84 9f3c 788c b23c
00000270: f226 6c3d 9e83 5bbd 2395 d4bb 8c39 f4bc
00000280: de9d d8bc 47a0 1bbd 207e 153d e1f8 46bc
00000290: 8275 7a3d 5370 dc3c 5e28 b3bd 91fc 80bd
000002a0: 04cd 9bbd 5c7b 8a3d ae70 1ebd 2cad 2abd
000002b0: fd42 97bb 4452 4abd 4950 77bd 101e d53d
000002c0: 5f8e 93bd daab 13bd 31bf 893d b8b8 163d
000002d0: a84a ab3d ed15 18bd 1ef7 393d 818d 15bd
000002e0: 56dd 40bd 77cd d2bc 48d2 91bd ff21 5e3d
000002f0: dcf8 acbc 3bdd 67bd a925 bf3b 07f0 7a3d
00000300: 2642 0c3e 0ae6 a63d a57e 873d b1ee 0f3d
00000310: e602 ef3d 45c1 693d 32a4 903c 48b0 043c
00000320: c921 9ebb 5621 21bc 895d b3bc 5ea4 57bd
00000330: a6a1 803c e7c3 33bd 2c81 45bd ba0a c43d
00000340: c724 143c fc10 6f3d 1b54 a6bd d808 1ebd
00000350: 6752 5fbd 52a3 203c 1765 813d 3a16 25bd
00000360: 3283 d43d 4385 ccbc 09f9 813b 4045 22bd
00000370: 9bba 253c 7b5e a7bd 1856 a7bd 514b 673c
00000380: 24c2 f4bb 50b8 0c3d 2f1d 70bb 3923 563c
00000390: 04bd d03d 6eaf db3d 3fa9 2c3d a03b d43d
000003a0: 4e46 423a 91b2 c6bc 498c 3f3c b0e0 833d
000003b0: 92d9 f73b e7b9 79bd 54e6 453b 63d0 43bb
000003c0: b244 26bd ffda 673d bfb3 b7bc bd5e 68bd
000003d0: 283e 2bbd 508b 833d 1b13 a83d f626 36bd
000003e0: 730a 04bc 6ab4 0c3d 77e0 393d 4feb a8bd
000003f0: f47f 023c 4469 143d 4243 583d 4ad2 8f3b
-0.07038182 -0.03465842 -0.116885565 0.1541286 0.071381226 -0.030116275 0.107740015 0.068334706
0.039531395 0.07159448 0.08071298 -0.042318776 0.065004386 -0.052322604 -0.059386924 0.0010819234
0.0089727575 -0.14121987 -0.07412425 -0.083781324 0.09372766 0.051909193 -0.04617699 0.010273293
-0.04985556 0.056451082 -0.029783616 -0.12602349 -0.16373074 0.011127913 0.07903064 0.01673244
0.14251882 -0.010708465 0.0036509677 -0.026164632 0.073180236 0.025785813 0.15267058 -0.058885723
-0.07457744 -0.07001716 -0.07266999 0.17410694 0.018270217 -0.006738476 0.014276698 -0.08174111
-0.07250208 -0.14902219 -0.060658693 -0.14801525 -0.065188214 -0.017200476 0.022965206 0.09788035
0.010586404 -0.10130727 0.0038616993 -0.014203949 0.1350477 -0.02820012 0.06473747 -0.07632796
-0.09213333 0.12125721 0.033681832 -0.07933591 -0.021123124 0.0097641675 0.05528905 0.012694727
0.052918125 -0.037787624 0.005589587 0.19034453 0.027639166 -0.050429527 0.13133891 0.06029535
0.02215482 0.14177957 0.120965034 -0.11944019 -0.045143813 -0.05967148 0.009298936 0.10628488
0.013778708 0.08113132 0.06954647 -0.029001348 -0.053168293 -0.06765129 0.096920036 -0.27468476
-0.068764925 0.031920545 -0.047171637 -0.032750037 0.17979623 -0.020863885 -0.0061494024 -0.008811917
-0.04413115 0.02332927 0.045995884 -0.0041964147 0.09451395 -0.05863351 0.122603625 -0.028477257
-0.01877818 0.15164785 -0.0044793542 0.051379196 0.035550527 -0.0006963439 -0.19269863 0.049990132
0.06488794 -0.060147297 0.000839984 -0.016379395 -0.00016543335 -0.095561735 0.037497595 0.01466985
0.058026347 0.003705477 -0.009377724 -0.007610998 -0.067932256 -0.02908712 -0.071386755 -0.10267311
0.08332239 -0.07249602 -0.0512697 0.024218136 -0.07305759 -0.0022435405 -0.054275148 -0.07588743
0.0018678941 0.111138284 -0.006751828 0.081002064 -0.0123581225 -0.043614 0.071572036 -0.017469963
-0.07393427 -0.007977089 0.019472206 0.021795496 0.05765433 -0.053592317 -0.006487505 -0.029812597
-0.026442464 -0.03799465 0.036497235 -0.012144298 0.06114722 0.02690903 -0.08747934 -0.06298173
-0.07607463 0.0676181 -0.03868168 -0.041669056 -0.00461614 -0.04939486 -0.0603793 0.104061246
-0.072048895 -0.036052562 0.0672592 0.036797255 0.08363849 -0.037130285 0.045401685 -0.0365119
-0.047086082 -0.025732739 -0.07120186 0.05423164 -0.02111476 -0.056607466 0.005833347 0.061264064
0.13697109 0.08149345 0.066159524 0.035139743 0.11670475 0.05706908 0.01765642 0.008098669
-0.004825805 -0.009834608 -0.021895187 -0.052646987 0.01570208 -0.043888 -0.04821889 0.095723584
0.0090419715 0.058365807 -0.081215106 -0.038582653 -0.054521944 0.009804564 0.063181095 -0.0403044
0.10376586 -0.024965888 0.003966455 -0.039616823 0.010115291 -0.081723176 -0.08170718 0.014117078
-0.0074694324 0.03435546 -0.0036638489 0.013069921 0.10192302 0.1072682 0.042153593 0.10362935
0.0007410989 -0.024255069 0.011691161 0.0643934 0.007563778 -0.060968306 0.00301971 -0.0029878847
-0.040592857 0.056605335 -0.022424577 -0.056730974 -0.041807324 0.06423056 0.08206769 -0.04447075
-0.008059132 0.034351744 0.045380082 -0.082480066 0.007965077 0.0362332 0.052798517 0.004389082

fc2.bias f4 [64]
00000000: 424a 8abb 0eee 5ebd 5614 b43d abf8 cdba
00000010: 977a 8a3d 03bb 47bd 9502 aabc a47f 8c3d
00000020: cd4c 43bd 3838 b2bd c1d9 633c 66a1 0e3c
00000030: 17b0 0dbd 5aa7 51bd c798 8e3c 8478 8b3a
00000040: 6d2f dd3c 7404 2ebd 34a8 9bbd acb9 14bd
00000050: a44a 23bc 0732 8d3d eab7 debc e994 563d
00000060: b37c aebb 67c8 9f3d 933d f03d a1ff 373d
00000070: 0ee3 afbc 8b5a 2bbd 90b8 763d 5ef7 c03d
00000080: f2bc 99bd 845a a93d 9afe 733d d466 7cbd
00000090: 5e82 91bc bd0b fc3c c8a9 ee3c 0d09 143c
000000a0: e990 033d 2555 043d 42b8 e3bc 5d89 72bc
000000b0: d4e8 ff3d 5119 133d 6ffa 50bc 8203 97bd
000000c0: 810f 1dbc 4cd0 0bbd 2630 a4bc ac72 67bd
000000d0: 1dab 92bd 88fc b83d 78ab dc3c c3a4 8a3d
000000e0: 1a38 ad3c 65a5 ba3d 2baf 0c3e dbc1 223b
000000f0: 8224 783c 44da 3bbd 5760 99bd 5b2a 36bd
-0.004220278 -0.054426245 0.08792941 -0.0015714368 0.067616634 -0.048762333 -0.020753184 0.06860283
-0.047680665 -0.08702129 0.013906897 0.008705473 -0.03459176 -0.05118499 0.017406834 0.0010640775
0.027000153 -0.042484716 -0.076004416 -0.036309883 -0.009966526 0.068943076 -0.027187306 0.052388106
-0.005324924 0.078018956 0.11730494 0.04492152 -0.021470573 -0.041834395 0.060234606 0.094221815
-0.075067416 0.082692176 0.05956898 -0.061621502 -0.01776236 0.030767316 0.029133692 0.009035361
0.03212062 0.032307763 -0.027797822 -0.014803258 0.1249558 0.035912815 -0.0127550205 -0.07373716
-0.009586216 -0.034134194 -0.02004249 -0.056505844 -0.071615435 0.090325415 0.026937231 0.06769707
0.021144915 0.09113578 0.13738696 0.0024834785 0.015145423 -0.04586245 -0.074890785 -0.044473987

fc4.weight f4 [4, 64]
00000000: eb89 a33e df5a 983d 38db c53d f03f 1a3e
00000010: e436 0c3d c090 b1bd 0223 843e 58e3 493c
00000020: 8ec5 cdbc 1b06 a9bd ea4d 7a3d 4671 0a3e
00000030: 6da7 b6bd a994 f03d a4e4 c53d 3a69 323d
00000040: 3c41 c0bd ee3e dfbd a406 1d3e 8c8e 7c3d
00000050: 308f 01be b675 f83d cfa1 763e 9123 a83c
00000060: 15bb e1bd d181 cdbd 60a7 fc3d 8055 0e3d
00000070: 002b 33bb 7f3d a5bd 1b37 50bd 485d 163e
00000080: cf7b bc3d d70c c23d 904a 6b3e 9c23 cfbd
00000090: 9467 08bd f975 893d 4cb8 a5bd 9436 4d3e
000000a0: 8553 173e f2e9 8fbc eae0 06be ae70 173e
000000b0: 58a6 0fbc 40ce d6bc 8f13 8c3e 4ea4 1abd
000000c0: 5bdc 0b3e 4007 283d 0ac6 9ebd 26f3 01bd
000000d0: fd8f 11be 4c7b fc3d 5cbc c93d 22f2 403d
000000e0: c46d 23be bd99 983d 7f8b e13d b390 073e
000000f0: 43ca 173c acf3 973d f567 0b3d 4d56 603d
00000100: 892e 133e da0c e73d 6bfe 3c3d 0a0d c33d
00000110: 3c9c 903d b178 a03c e920 743d c471 3a3d
00000120: 7170 613d 2a84 c43d 1c1a 77bd 66ad fd3d
00000130: 67b2 a03d ec90 d63d dffc aa3d e8c9 bbbd
00000140: 1643 bcbd 37cf 85bd 39a8 163e 5748 023d
00000150: 968f e1bd a218 293d 6425 c7bc 5c6e a0bd
00000160: 5257 97bd 2331 e8bd 2113 f63d 930c 1abc
00000170: 9ea2 083e 4729 85bd 806d c4bd 4b35 203c
00000180: 12ab 3abd 75f7 c63c 6b09 e03d 49a0 2bbd
00000190: 007c e6bd ed4b 86bc 6abb 08bd 7c88 a83d
000001a0: db51 c23d 4867 04be 442a 2fbd f576 0c3e
000001b0: fb3d 113e 27b4 55bd 39b0 793e 0b35 d03d
000001c0: 0099 0c3e 5c43 e2bc 45f4 163c db6c 66bb
000001d0: add3 d5bd 1c03 1d3e 0555 fe3d 17b9 1e3d
000001e0: 0bbc b23d ca37 8b3d 7cf2 db3d 9fea 933d
000001f0: f790 cd3d e7c5 833d 9bbd d53c 68e3 3f3e
00000200: 5b74 1b3e 4083 3dbe 0b5f 913d b2f5 583e
00000210: f332 153e 8bff 1d3e b87f 063d f30c a23e
00000220: 6c97 983c 0e49 b63c ec8e 91bd 618c da3d
00000230: 4e8c 05be f661 27bd 1fd0 f53d d3da 1abd
00000240: 0d0c 3ebd 5c22 bbbc 83b7 713e 8329 bcbd
00000250: f38a cdba 0e81 933d a2b2 4e3c 1cd0 89bb
00000260: 32f3 453d de7c 043c b4fd 063e 1eda bb3d
00000270: 6c5f 89bd 965f 57bd 23b0 ad3d cba5 523c
00000280: f1e5 2dbd 61aa 073e 7ca5 e73d 35cb 28bd
00000290: 7169 13bc fd0d 3f3e fe13 b43c c1cd fb3d
000002a0: 831a 393e f361 abbd 1dd6 f3bd df5b 9f3c
000002b0: fe4a 5c3d 9668 f7bc 92c4 4f39 7b4d 6dbd
000002c0: 7228 963c 1ec9 073e 7fb7 5fba 1c48 1e3e
000002d0: 4780 55bd d21b 113e 7443 19bd 8e41 f73d
000002e0: 9e0c 4abd 61da 123e 4845 ff3d 582c 13bd
000002f0: ff0b 8a3d aeb3 b3bb 7ed3 c23d 63bb 683c
00000300: 5041 eb3d 63b0 62bd d08f e93d 7718 413e
00000310: 73f0 343d aef3 f03b 1a88 d7bc fd0a a3bd
00000320: 1d9e d2bd 48eb 25be 874b 12be 3cc2 eb3d
00000330: bcfa 9ebd 0d45 ee3d 0840 f43d 0054 033d
00000340: 6685 10bc 535d c23d 43f9 c4bd 8b56 093e
00000350: bb05 023e b0fb 903e ad81 db3c eb55 b73d
00000360: 2443 2fbd 273e c13d 4dac 0e3e 7385 813d
00000370: 6d69 b83d 421c bfbc ea8f 8cbd 8e84 0e3e
00000380: 717f efbd 1dae 873d b66c bd3d 5c4e 9fbc
00000390: f98d 19be 5178 44bd 2f6c 87bd cb62 093e
000003a0: 72fd e53d a026 bcbd f78a a9bd 9343 b7bd
000003b0: 27db 073e cfde 73be 6cc9 8b3d 2289 4fbc
000003c0: 4471 2bbd 79b3 063e 946f 5b3d 5fc0 563d
000003d0: 99a2 c63c 5772 5cba 3bc1 b53d 5b96 0a3e
000003e0: 4384 a1bd a0c5 033d 6955 643d a33e bfbd
000003f0: f3d5 103e 141b 01bc b762 7abe 3cf5 303e
0.3194116 0.07439207 0.09660953 0.15063453 0.034232035 -0.08670187 0.2580796 0.012322269
-0.025118615 -0.08253118 0.06110946 0.13519773 -0.08918653 0.11747105 0.0966275 0.043557383
-0.093874425 -0.10900675 0.15334564 0.06165938 -0.12652278 0.121318266 0.24085163 0.020524772
-0.11022011 -0.10034526 0.12336612 0.034749508 -0.0027338862 -0.0806837 -0.050833803 0.14684021
0.09203302 0.09475105 0.22977662 -0.10114214 -0.033301905 0.067119546 -0.080917925 0.20040351
0.14777954 -0.017567609 -0.13171735 0.14789078 -0.008767687 -0.026221395 0.27358672 -0.03775435
0.13658278 0.04102254 -0.07752617 -0.031726025 -0.14215083 0.123282045 0.0985038 0.047105916
-0.15959841 0.07451198 0.11012935 0.13238792 0.009264532 0.074195236 0.034034688 0.054769803
0.1437322 0.11281748 0.04614107 0.095239714 0.07061049 0.0195888 0.059601698 0.04551865
0.055038873 0.09595521 -0.060327634 0.12386589 0.078465275 0.104768604 0.083490126 -0.0916937
-0.09192483 -0.06533664 0.1471261 0.03180727 -0.11013715 0.041283257 -0.024309821 -0.078335494
-0.07389702 -0.11337497 0.12015367 -0.009402412 0.13343284 -0.06502014 -0.09591198 0.009778331
-0.0455733 0.024287919 0.10939296 -0.041900907 -0.1125412 -0.016393626 -0.033381857 0.08229157
0.09488269 -0.12930024 -0.042764917 0.13717254 0.141838 -0.05217376 0.2438363 0.10166367
0.1373024 -0.02762001 0.009213512 -0.0035160098 -0.104407646 0.15333217 0.1241856 0.038750734
0.087272726 0.0679775 0.107396096 0.07222485 0.100374155 0.06434231 0.026091387 0.18739092
0.15181105 -0.18507099 0.07098206 0.21187475 0.14570217 0.15429513 0.032836646 0.31650504
0.018626891 0.022251632 -0.07107338 0.106713064 -0.13041803 -0.040864907 0.120025866 -0.037806343
-0.04639821 -0.022843532 0.2360516 -0.09187605 -0.0015681669 0.072023496 0.012615832 -0.004205717
0.048327632 0.008086411 0.13182718 0.09172462 -0.067076534 -0.052581392 0.08480861 0.012856911
-0.042455617 0.13248588 0.113108605 -0.04120942 -0.008997307 0.1865768 0.02198219 0.12295104
0.1807652 -0.08368292 -0.11906073 0.019452987 0.053782456 -0.030201238 0.00019814286 -0.05793522
0.018329833 0.13260314 -0.0008534118 0.15457195 -0.052124288 0.14170769 -0.037417844 0.120730504
-0.04932844 0.14341117 0.12464386 -0.03593096 0.06740569 -0.005484066 0.09512995 0.014204833
0.11487067 -0.055343997 0.11404383 0.18856989 0.044174623 0.0073532676 -0.026310015 -0.0796108
-0.10284064 -0.16203034 -0.14286624 0.11511657 -0.077626675 0.11634264 0.119262755 0.03206253
-0.008820867 0.094904564 -0.096178554 0.1341192 0.12697499 0.28317022 0.026795233 0.089519344
-0.04278864 0.09435683 0.13932915 0.063242815 0.09004483 -0.023328904 -0.06863387 0.13917753
-0.116942294 0.06625006 0.092492506 -0.019446544 -0.14995565 -0.047966305 -0.06612431 0.13416593
0.112299815 -0.09187055 -0.082784586 -0.08948436 0.13267194 -0.23815463 0.068255275 -0.012666972
-0.041856065 0.13154401 0.053573206 0.052429553 0.024247454 -0.0008409372 0.088747464 0.13533919
-0.07886555 0.03217089 0.055745516 -0.09338119 0.14144115 -0.007879991 -0.24451719 0.1728105

fc4.bias f4 [4]
00000000: 339e 82bd 3ea1 7bbc bfcd da3d 1469 933d
-0.0637783 -0.015358267 0.10683774 0.071977764
